Reading external embedding file ......
Building embedding matrix ....
Finished building embedding matrix ....
Training Fold %i 1
_________________________________________________________________
Layer (type)                 Output Shape              Param #   
=================================================================
input_1 (InputLayer)         (None, 100)               0         
_________________________________________________________________
embedding_2 (Embedding)      (None, 100, 200)          2000000   
_________________________________________________________________
conv1d_1 (Conv1D)            (None, 100, 32)           6432      
_________________________________________________________________
max_pooling1d_1 (MaxPooling1 (None, 20, 32)            0         
_________________________________________________________________
conv1d_2 (Conv1D)            (None, 20, 32)            1056      
_________________________________________________________________
dropout_1 (Dropout)          (None, 20, 32)            0         
_________________________________________________________________
flatten_1 (Flatten)          (None, 640)               0         
_________________________________________________________________
dense_1 (Dense)              (None, 32)                20512     
_________________________________________________________________
dense_2 (Dense)              (None, 2)                 66        
=================================================================
Total params: 2,028,066
Trainable params: 28,066
Non-trainable params: 2,000,000
_________________________________________________________________
None
