Reading external embedding file ......
Building embedding matrix ....
Finished building embedding matrix ....
Training Fold %i 1
_________________________________________________________________
Layer (type)                 Output Shape              Param #   
=================================================================
input_1 (InputLayer)         (None, 100)               0         
_________________________________________________________________
embedding_2 (Embedding)      (None, 100, 200)          2000000   
_________________________________________________________________
conv1d_1 (Conv1D)            (None, 100, 32)           6432      
_________________________________________________________________
max_pooling1d_1 (MaxPooling1 (None, 20, 32)            0         
_________________________________________________________________
conv1d_2 (Conv1D)            (None, 20, 32)            1056      
_________________________________________________________________
dropout_1 (Dropout)          (None, 20, 32)            0         
_________________________________________________________________
flatten_1 (Flatten)          (None, 640)               0         
_________________________________________________________________
dense_1 (Dense)              (None, 32)                20512     
_________________________________________________________________
dense_2 (Dense)              (None, 6)                 198       
=================================================================
Total params: 2,028,198
Trainable params: 28,198
Non-trainable params: 2,000,000
_________________________________________________________________
None
Epoch 1/20

 512/2311 [=====>........................] - ETA: 1s - loss: 1.9637 - acc: 0.0352
1536/2311 [==================>...........] - ETA: 0s - loss: 1.7683 - acc: 0.2513
…
