mimic 200 multi
Reading external embedding file ......
Building embedding matrix ....
Finished building embedding matrix ....
_________________________________________________________________
Layer (type)                 Output Shape              Param #   
=================================================================
embedding_1 (Embedding)      (None, 100, 200)          2000000   
_________________________________________________________________
dropout_1 (Dropout)          (None, 100, 200)          0         
_________________________________________________________________
conv1d_1 (Conv1D)            (None, 98, 300)           180300    
_________________________________________________________________
global_max_pooling1d_1 (Glob (None, 300)               0         
_________________________________________________________________
dense_1 (Dense)              (None, 2)                 602       
_________________________________________________________________
activation_1 (Activation)    (None, 2)                 0         
=================================================================
Total params: 2,180,902
Trainable params: 2,180,902
Non-trainable params: 0
_________________________________________________________________
None
Epoch 1/20

 512/2369 [=====>........................] - ETA: 2s - loss: 2.5838 - categorical_accuracy: 0.5332
1024/2369 [===========>..................] - ETA: 1s - loss: 1.9759 - categorical_accuracy: 0.5518
…
