one hot: False
segment: False
test: False
multilabel: True
common words: 10000
maxlen: 100
labeltrain: /home/neha/Desktop/n2c2/labels_train
sentrain:/home/neha/Desktop/n2c2/sentence_train
2893
Reading external embedding file ......
Building embedding matrix ....
Finished building embedding matrix ....
Training Fold %i 1
_________________________________________________________________
Layer (type)                 Output Shape              Param #   
=================================================================
input_1 (InputLayer)         (None, 100)               0         
_________________________________________________________________
embedding_2 (Embedding)      (None, 100, 200)          2000000   
_________________________________________________________________
conv1d_1 (Conv1D)            (None, 100, 32)           6432      
_________________________________________________________________
max_pooling1d_1 (MaxPooling1 (None, 20, 32)            0         
_________________________________________________________________
conv1d_2 (Conv1D)            (None, 20, 32)            1056      
_________________________________________________________________
dropout_1 (Dropout)          (None, 20, 32)            0         
_________________________________________________________________
flatten_1 (Flatten)          (None, 640)               0         
_________________________________________________________________
dense_1 (Dense)              (None, 32)                20512     
_________________________________________________________________
dense_2 (Dense)              (None, 8)                 264       
=================================================================
Total params: 2,028,264
Trainable params: 28,264
Non-trainable params: 2,000,000
_________________________________________________________________
None
Epoch 1/20

  512/24307 [..............................] - ETA: 12s - loss: 2.0507 - acc: 0.1953
 2048/24307 [=>............................] - ETA: 3s - loss: 1.9866 - acc: 0.1899 
…
